ckpt_40.pth (torch, 942423 bytes, 6 tensors)

fc1.weight f4 [256, 784]
00000000: aa3f 48bc 5cef 163b 1c5b cebb 0785 923c
00000010: 130a 083b 5898 fa3c b286 103d 01d4 d1bb
00000020: b7cf 07ba 4ed9 1b3c 65ac cf3c 4ae2 aab9
00000030: e383 c63c 13de f1bb 85f4 b93c ee43 033d
00000040: bc27 ea3c 9a76 ea3c 7318 043c bcd6 8bbc
00000050: 5162 ed3c 0141 65bb 2c64 ab3c 2788 0e3d
00000060: 2101 e1bc ec6b a5bc 47ea b8bc 00ec 84bc
00000070: 4a69 a8bc a5fb 903c 93ed 63bc 936a b33b
00000080: aa4f 663c b792 8dba 1a8e d83c 5c2c cfbb
00000090: d3e7 fd3b 55cb dabc 73e6 b4bc 0790 b53c
000000a0: d1b7 f03c 0cb9 b1bc 00ac 9039 81dd c83c
000000b0: 3c11 c83c eef7 463b 4a26 d0bb 7c69 c33c
000000c0: 95fb 973c cea6 4ebc ffa9 093d 53a1 aabc
000000d0: 5a7a eabc 3e4f ac3c 2e87 a9bb 7791 b93c
000000e0: df02 093d 4a5f d0bb e50a 65bc ae5c a6bb
000000f0: 7333 13bc bc37 95bc faf6 c13c c103 cfbb
00000100: aa39 6bbc 0143 c73a d189 e93c 3346 12bc
00000110: 6e16 c03a aa27 11bc d15c f1bc 77b9 4ebc
00000120: 81f7 e23c d371 69bc 5c5d 473c 1727 d1bc
00000130: a5fb 5abc 8094 033d 670b bcbc 6033 023c
00000140: 00d3 1ebb 4a5a 63bb eeae 1bbb 6ee3 bd39
00000150: d7e9 4d3c ba9a c1bc 93cd 0c3d 9c26 9bbb
00000160: 8528 cabc 5c86 2fbb 0180 b4bb 5639 103d
00000170: 2513 0fbc 3807 77bb ba17 8c3c fafb 043d
00000180: 1338 003b c6cf 003d d5d3 04bd 2e87 a6bc
00000190: 5c7b 66bb 53d1 98bc 4aee 8c3c 8a62 45bc
000001a0: c8ce f43c 0a2a e43c a118 b1bc bc85 0cbd
000001b0: 8eea 0e3d b74d 9e3b 9c2c 82bc 7c6b 2c3c
000001c0: a1d3 7b3c 309b a7bc 2561 1abb 8037 013b
000001d0: 5ae7 b9bc 13a7 2a3b 33b7 d23c 2a52 423c
000001e0: d07d 023d e591 73bc 45bf cb3c 6e0f f4bc
000001f0: 6e78 57bc 13b9 c53c ceca efbc 4fb2 10bd
00000200: bc56 a1bc 2e5e bebc 9c07 8e3c 7e19 9a3c
00000210: 3784 ca3c 2529 b0b9 d74a 0d3d 879f c0bc
00000220: c533 49bc f33b 7dbc dc97 dabc ef60 083d
00000230: 41c1 6fbc dc58 a9bb 610c f7bc f335 043d
00000240: b3fa 95bc 8090 a33b 2e4b 60bc 1c1f 573c
00000250: 1c6f ea3b f32c c13c 5c46 303b de55 a1bc
00000260: e8d6 e4bc c3d6 8f3c 8ab5 fd3b ca06 56bb
00000270: a03c 99bc eeb2 e8bc 9bfc 043d 452d 8cbc
00000280: 5c2c 03bd ac5a ec3c 7348 bf3c 2e5c 0fbc
00000290: 9348 c7bc 6e33 88b9 989e 6e3c dede dcbc
000002a0: 4e61 363c 3afb 95bc 2ac7 cf3c b745 d2b9
000002b0: cf46 0f3d f339 863c a55b 17bb 4396 abbc
000002c0: 3303 fcbc 40da a13c 6063 0bbc ec7c cfbc
000002d0: 3704 4fbb 5c86 873b 0e4b 833c 5a31 093d
000002e0: f72c b5bc 2ae1 ecbc 85d2 24bc dc6e 1c3b
000002f0: 0758 d13c 7aff d03c c595 22bc 6a51 613c
00000300: 1806 ebbc 0e1d 0e3d 0112 733c 53d1 1cbc
00000310: a59a 57bb 5ccc 043c 014e 643a b79d b13a
00000320: fc31 66bc 81a2 663b 4ab9 96bc 8e44 713c
00000330: 7104 b23c 93d9 d2bb dc62 36ba 7009 883c
00000340: 50c0 8d3c 3a72 ec3c ca51 85bb 3e9f 0dbd
00000350: ea3b 253c 6e6d cd3b e37b d63c 8a2c 67bc
00000360: 93e5 e73c 31d0 b0bc e02c 853c 8572 9e3c
00000370: 4a27 be3a 9c22 013c 4ed5 0cbc e7d6 883c
00000380: 9e48 aa3c f74b c7bc fc2a afbc b24c 0e3d
00000390: 4511 19bc 3734 2d3b 9359 9fbb 9c1f 893b
000003a0: 9cfd 883c fa0e 9f3c 6b27 063d dccb ef3b
000003b0: 00f7 a83a 9161 b7bc 7c17 ad3c 37c7 2ebc
000003c0: dc93 a3bc 9e20 88bc 381a e43c 0804 0cbd
000003d0: dc41 25bb 1efa d53c 1cab c33c dc74 17ba
000003e0: 9799 05bc 1c9d bcbb 253f 3f3a 8a8f 00bd
000003f0: dc5d 32bb 3136 bc3c b867 693c d50d ca3c
-0.01222221 0.0023030853 -0.006297482 0.017885698 0.0020757958 0.030590221 0.035284705 -0.0064034467
-0.0005180793 0.009512259 0.025350759 -0.00032593525 0.02423281 -0.0073812096 0.022699604 0.032047205
0.0285834 0.028621007 0.00806247 -0.017070167 0.028977545 -0.0034981372 0.02092179 0.034797814
-0.027466359 -0.020193063 -0.02257265 -0.016225815 -0.020558018 0.017698118 -0.013911623 0.005475351
0.014057079 -0.0010801171 0.026434947 -0.0063224267 0.007748583 -0.026708284 -0.022082543 0.022163404
0.029384525 -0.021694683 0.0002759397 0.024519684 0.02442228 0.003036018 -0.0063522207 0.02385401
0.01855258 -0.0126130115 0.033609387 -0.020828879 -0.028622795 0.02103388 -0.0051735854 0.02265237
0.033450004 -0.0063590156 -0.013979648 -0.0050769662 -0.008984434 -0.018215053 0.023677338 -0.006317586
-0.01435701 0.0015202464 0.028508099 -0.00892787 0.0014655122 -0.008859554 -0.029463204 -0.01261746
0.02770591 -0.014248329 0.012168255 -0.025531335 -0.013365661 0.032124043 -0.022954656 0.007946819
-0.0024234653 -0.0034691268 -0.002375539 0.00036218337 0.012567959 -0.02363335 0.03437574 -0.004734827
-0.024677524 -0.0026782965 -0.0055084233 0.03521093 -0.008732592 -0.0037693512 0.017101157 0.032466866
0.0019564673 0.03144815 -0.03242858 -0.02032813 -0.0035168743 -0.018654501 0.017203469 -0.012047419
0.029883757 0.027852077 -0.02161819 -0.034307227 0.034891658 0.0048310417 -0.015890412 0.010523673
0.0153702805 -0.020459741 -0.0023556438 0.0019716918 -0.022693325 0.0026039525 0.025722122 0.01186041
0.031858265 -0.014866327 0.024871478 -0.029792514 -0.013151271 0.024136102 -0.02927151 -0.0353263
-0.019694678 -0.023238268 0.017337613 0.018810984 0.024721248 -0.0003359999 0.0344952 -0.023513569
-0.012280409 -0.015456188 -0.02668374 0.033295568 -0.014633478 -0.0051680636 -0.03015727 0.032278012
-0.01830802 0.004991591 -0.013689799 0.013129976 0.0071543586 0.023581004 0.0026897406 -0.019694265
-0.027934507 0.017558461 0.0077425884 -0.0032657855 -0.018705666 -0.028405633 0.032467466 -0.01711143
-0.032024726 0.02885183 0.023349976 -0.008750005 -0.024326598 -0.0002597826 0.014564179 -0.02696174
0.011131598 -0.01830827 0.025363524 -0.00040106263 0.034979638 0.016385054 -0.0023095396 -0.020945674
-0.030763244 0.01975739 -0.00850758 -0.025328122 -0.0031588206 0.00413589 0.016027 0.03349433
-0.022116167 -0.02891596 -0.010059957 0.0023869788 0.02555467 0.025512446 -0.009923403 0.013752321
-0.02868943 0.034695677 0.014835835 -0.009571391 -0.0032898572 0.008105364 0.0008709133 0.0013551031
-0.014050003 0.0035192075 -0.0183989 0.014725817 0.021730633 -0.0064346283 -0.000695748 0.016606063
0.017303616 0.028863061 -0.004068588 -0.034575693 0.010085085 0.0062691486 0.02618212 -0.01410974
0.028307712 -0.021583648 0.01625675 0.019341717 0.0014507559 0.007881787 -0.008595778 0.016704036
0.02078658 -0.024328215 -0.021382801 0.03474111 -0.009342496 0.0026428828 -0.004862973 0.0041846763
0.016722493 0.019416321 0.032752436 0.007318003 0.0012890995 -0.02238539 0.021129362 -0.010667614
-0.019967966 -0.016617116 0.027844533 -0.034183532 -0.0025216257 0.026120242 0.023885302 -0.0005777606
-0.008154294 -0.0057560336 0.0007295481 -0.03138689 -0.002721659 0.02297506 0.01424592 0.024664799

fc1.bias f4 [256]
00000000: 13cc 0abc 2161 32bc 25e6 e53c 77b1 493c
00000010: 4366 0dbd 4a1a 68bb 8121 ecbc b304 8c3c
00000020: 41bf 40bc bcfb 703c d168 d43c 6ee6 41bb
00000030: bb87 01bd 6c6d bbbc 757a ad3c 2160 4b3c
00000040: 2e3a edbb 3c74 7f3c 9e70 a3bc eefd 0dbc
00000050: 0ebc 093d 589a fd3c 3d6b 013d 0379 f03c
00000060: d370 20bc 7003 a7bc b1cc b23c 2a21 b23c
00000070: 951b aebc 6090 0d3d 40a3 0dbd 2511 153b
00000080: 6cfd fabc 9c19 9ebc 2541 a8bc 4add f4bc
00000090: 0168 e93c 57bd 453c dc72 99bc 8775 9ebc
000000a0: 13f1 4cbb 4199 3dbc dce7 d63b 67f3 a3bc
000000b0: ce55 603c 4a7d d43a 51ba f2bc 4a61 9abc
000000c0: acfc 8cbc e086 1c3c 2a67 383c 2a68 94bc
000000d0: b5ea 9f3c ea7f efbc 2647 033d 8580 ae3c
000000e0: 4ed4 633c bc69 553c 3e29 0bbd 5f47 103d
000000f0: 5f55 0e3d d7a7 8ebc 65ca e9bb 0a1e 40bc
00000100: 4ac2 3fbc 7092 01bd f546 db3c a0a3 0d3c
00000110: 8ae3 f1bc 3013 123d 1cd4 793c 0e6a 37bc
00000120: 4adc 6bbc 534d 62bc 5cad cdbc 2746 9bbc
00000130: a239 05bd 1300 ebbc cacd bbbb d3a2 4a3c
00000140: 5770 1fbc 7788 85bc 5ade 0ebd 4ea7 f5bc
00000150: ccdf fa3c 5c12 2bbc 3898 ff3b aaf9 983c
00000160: 761c 11bd 5caa a3bb c5b8 853c 9a54 963c
00000170: 8af2 da3c 9ad1 d0bc dae2 96bc 6ed2 c4bc
00000180: 70e6 063d 53aa 973c a551 d3bc 6e0b d9ba
00000190: 8590 9e3c 9037 08bd be3c a93c dc36 d239
000001a0: e716 bc3c 7cab 743c 0505 073c bafc fb3c
000001b0: 62d4 053d 4086 9b3c 93d7 4d3b a042 9cbc
000001c0: aaa3 02bd 1c45 833b b789 07ba 0124 3aba
000001d0: 45ff 3dbc 217a 50bc 8e73 823c 379a 8fbc
000001e0: 0191 ea3a 37bf 033d 5845 793c ecb4 a9bc
000001f0: ca91 91bc f330 fc3c fcd7 5bbc d7bb a6bc
00000200: 3715 543b 0a5d c0bb 9cd8 a5bb 8096 963c
00000210: 2ac5 653c 0115 6bbb 0553 3c3c 01bd 783b
00000220: e596 e13b 1381 ff3b 37db 46bc 6e20 21bc
00000230: 9369 bb3a 6541 7a3c 5cde 033d 1879 7f3c
00000240: ba76 0d3d c1e7 2bbc d3d7 9f3c c5b0 203c
00000250: 4e73 e4bc 535d 0b3d ba78 0dbd 6a10 883c
00000260: 4543 0cbd 950f 05bd 3a49 f1bc acf6 f2bc
00000270: b51f 9fbc 6eb7 a6bc f7c6 b4bc d3b0 e6bc
00000280: 0a2b d4bc 156b b0bc 937f 1c3c f7e9 c3bb
00000290: dc9f c23b 3755 153c d369 893c b876 f3bc
000002a0: 9374 5339 fa25 febc 8669 093d ac25 a9bc
000002b0: 338f 0e3d 93ac 3eb9 fa15 05bd 41fe b83c
000002c0: 55c2 113d 9310 9abb 5330 243c 102e a73c
000002d0: 8a6c 21bc a5c7 803c 8a0a 06bc d5fe cf3c
000002e0: 6cdf 8ebc 0060 2ab9 d161 d03c 4a25 c43b
000002f0: fc18 dabc b763 503a 2aa7 933c dc11 933b
00000300: 5ab9 e7bc f312 b4bc bc5d 35bc 1ed2 82bc
00000310: a5f8 d23c 4c33 e3bc b311 72bc 67ce cfbc
00000320: 7e90 d93c 73c9 dbbc 2e60 973b 7558 cb3c
00000330: 06b8 103d dc7e ce3c 83f9 813c 9324 8939
00000340: 73ec 7a3c 25dd c8ba 67eb bebc e577 983b
00000350: 7324 33bc c7f4 0e3d 082e 0dbd 3325 fc3c
00000360: 8f75 043d 8ad4 8ebc b5ee 923c 65f5 ffbb
00000370: ae93 39bc 9a30 d8bc b3ad febc 931e 1d3a
00000380: 3ef1 bcbc ee97 0bbb 1709 a0bc eefd 393c
00000390: 7768 ce3b 3643 0dbd b70b 1d3c f835 fbbb
000003a0: 8a08 a73b 45a3 263c f765 33bc 057b e13c
000003b0: 0ceb d4bc 2525 8ebb 5cdc a3bb 0e84 513c
000003c0: 533f c33c 8a3b a03b 3eaf ef3c 4e4a 933c
000003d0: 8e02 843c 9ce6 bcbc 93e8 cdbc 8c57 953c
000003e0: c527 11bc 8829 ffbc 6e51 38ba 7ea8 893c
000003f0: 7070 8a3c 2ec8 1abc 2e59 d33b c1d9 edbc
-0.008471507 -0.010887415 0.028063843 0.012310377 -0.034521352 -0.003541606 -0.02882457 0.017092085
-0.0117643485 0.014708456 0.025928887 -0.002958681 -0.031623583 -0.022879325 0.021176556 0.012413056
-0.0072396016 0.015591677 -0.019951161 -0.008666499 0.03362661 0.030957386 0.03159641 0.029354578
-0.009792524 -0.020387381 0.02182612 0.02174433 -0.021253387 0.034561515 -0.034579515 0.0022745815
-0.03063842 -0.01929932 -0.020538876 -0.029890675 0.028491976 0.012069068 -0.018731527 -0.01934315
-0.003127162 -0.011572183 0.0065584015 -0.020013524 0.013692332 0.0016211655 -0.029629858 -0.01884522
-0.017210327 0.009553641 0.011255065 -0.018116076 0.019521097 -0.029235799 0.032050274 0.021301517
0.013905598 0.013025697 -0.03397488 0.035224315 0.034749385 -0.017414017 -0.007134723 -0.011725912
-0.011704037 -0.031633794 0.026767233 0.008644968 -0.029527444 0.03566283 0.015248325 -0.011194719
-0.014395783 -0.013812381 -0.025107078 -0.01895435 -0.032525666 -0.028686559 -0.005731319 0.012367922
-0.009731374 -0.016300423 -0.03488002 -0.029987004 0.030624293 -0.010441389 0.0078001283 0.018673737
-0.035427533 -0.0049946737 0.016323457 0.018350888 0.02672698 -0.02549057 -0.018418718 -0.024026122
0.032934606 0.018513834 -0.025795767 -0.0016559192 0.019356022 -0.033256114 0.020658847 0.00040095195
0.02296014 0.014933463 0.008240943 0.030760158 0.032673247 0.018984914 0.003140901 -0.019074738
-0.031894363 0.004006041 -0.00051703624 -0.0007100702 -0.0115965055 -0.01272443 0.015924241 -0.01752959
0.0017895998 0.03216478 0.015214287 -0.020716153 -0.017769713 0.03078506 -0.013418194 -0.02035324
0.0032361278 -0.005870466 -0.0050612222 0.01838231 0.014024058 -0.0035870674 0.011494403 0.0037954452
0.006884443 0.0077973693 -0.012137226 -0.009834392 0.0014298431 0.01527438 0.03219448 0.015592836
0.034537055 -0.010492266 0.019512093 0.00980777 -0.027887013 0.034024548 -0.034538962 0.01660939
-0.03424384 -0.032485563 -0.029453862 -0.029658638 -0.019424299 -0.020351138 -0.02206753 -0.028160488
-0.025899429 -0.021535436 0.0095519 -0.0059788185 0.005939467 0.009114555 0.016774094 -0.029719695
0.00020165955 -0.031023968 0.0335479 -0.020647846 0.034804534 -0.00018184101 -0.03249166 0.022582175
0.03558572 -0.004701683 0.010021287 0.020407706 -0.009852538 0.015720198 -0.008181224 0.025390068
-0.01744052 -0.00016248226 0.025437267 0.0059858905 -0.026623242 0.0007949429 0.018024046 0.004488213
-0.028286625 -0.021981692 -0.011069711 -0.015969332 0.025753329 -0.027734421 -0.014774728 -0.025366975
0.026558157 -0.026829457 0.00461962 0.024822453 0.03533175 0.025206976 0.015866047 0.00026157926
0.015315163 -0.0015324695 -0.023305608 0.0046529644 -0.010933983 0.034901407 -0.034467727 0.030779457
0.032338675 -0.01743533 0.01793609 -0.0078112357 -0.0113267135 -0.026390363 -0.031088686 0.00059936306
-0.023064252 -0.0021300274 -0.019535584 0.011352045 0.0062990743 -0.034487925 0.009585313 -0.0076663457
0.0050974535 0.010170762 -0.010949603 0.02752448 -0.025990985 -0.004337924 -0.005000634 0.012787832
0.023833906 0.00488991 0.029258367 0.017979767 0.0161145 -0.023059182 -0.025135314 0.018230222
-0.008859579 -0.031147733 -0.0007031177 0.016803976 0.016899318 -0.009447141 0.00644984 -0.029034497

fc2.weight f4 [128, 256]
00000000: f4eb 37bd b47a aa3c d8be a03c b052 143d
00000010: dab7 1e3d 4c3f 29bd b4e1 2fbd 7846 abbc
00000020: c093 043d 800f f53c 1ea0 0e3d 0af2 723d
00000030: 96e8 5abd e837 6c3d 1c77 e2bc 5c46 b9bc
00000040: 0c3d d03c 40b3 c1bb c490 943c 602d 56bd
00000050: 2868 283c 00ae f6bb 1875 223d 48ac 203c
00000060: 463c 16bd 781a 0cbc b47a adbc 7ccb 293d
00000070: a640 70bd 6464 54bd da89 39bd e8aa 65bd
00000080: 746b 59bd 749d a3bc a8aa 573c daa7 1abd
00000090: 606c e1bc 84d3 8fbc e0d9 f5bb 8403 e4bc
000000a0: 88ee 72bd 4ef5 2dbd 0018 983a 3ab7 243d
000000b0: f0dc 523d 64fe 8f3c 6aad 7ebd f8d7 643c
000000c0: 8a0d 3dbd e0cd 833c 1ad7 583d 521a 3f3d
000000d0: 1431 483d 8023 d73a d801 f5bc 8403 563d
000000e0: d833 753d e611 0a3d 00e7 6ebb a092 ce3c
000000f0: 3e38 52bd aa67 16bd 68b3 5cbc 00c5 2d3b
00000100: 34f7 55bd 30e7 153d 3eb3 173d 9abd 34bd
00000110: 74e9 33bd 94ec 753d 00ba 483b ecf9 fc3c
00000120: 92f8 3cbd b8cd 52bc 3032 82bc 327b 68bd
00000130: 2c10 623d 9aed 46bd 802a 433d d4e9 b33c
00000140: 9440 c33c 9214 3ebd 76f1 553d c610 533d
00000150: 980d e3bc 005b db3a 90f0 093c 70e9 07bd
00000160: d278 0c3d 26b9 2b3d 564d 16bd 6084 f8bc
00000170: 60b3 493c 9807 5bbc 7868 32bd c8ef 5abc
00000180: cc55 a7bc bed9 093d a068 babb b442 263d
00000190: 90d3 5cbd da96 283d f071 1b3d 20ad 9b3b
000001a0: b0e8 673d b0fd b1bb 76de 5d3d 42a4 23bd
000001b0: 78bd 553c eac4 033d 004e 4639 74b4 83bc
000001c0: debd 1bbd 082e 093c 5e99 21bd c804 0b3d
000001d0: fc07 143d f0ee 45bd 8292 0a3d 5ccc e0bc
000001e0: aa6c 583d 4870 0fbd 500d 233d 16d4 6a3d
000001f0: 5c72 443d b8dc 6c3d 8840 02bd f058 4b3c
00000200: c084 363d c2fd 54bd 727b 683d 844d 28bd
00000210: 008c 1c3c 7228 413d c4f6 d33c 8e94 2e3d
00000220: b4ee cbbc d6e1 663d c0d0 133d 308c 383d
00000230: 540b c83c 607b a33c 6080 163c 341b 74bd
00000240: b0b2 f6bc 083b a9bc 2c85 ab3c 8e55 22bd
00000250: fa8b 20bd 3694 65bd 004f 69bb 7850 0dbc
00000260: ee77 2f3d 78d6 3e3d e8b2 3c3c b039 523c
00000270: 20c2 573d ec10 5c3d 4cde 253d 749d 4fbd
00000280: a8c2 3a3d 3886 cdbc a494 4b3d f0ea 743c
00000290: a81c 2dbd 9452 11bd 40e6 b2ba 6875 ecbc
000002a0: 0e7d 7fbd a803 d5bc b0a9 ddbb e29b 19bd
000002b0: 4825 6a3c d0cd 953c 9cda 0e3d 6cd5 fd3c
000002c0: aeb6 3e3d 70ea 8f3b 205f 3fbc fc5d c2bc
000002d0: c20e 6fbd 18d4 a1bc 548f fc3c 481e 6fbd
000002e0: 3057 37bd 200b 27bb 58c3 463c 8aca 033d
000002f0: ccb9 19bd ecf7 f8bc 8e61 4f3d 30d6 cf3b
00000300: 909a e8bb 0037 c13a 3a98 623d 6073 8d3b
00000310: b87b 15bc dea9 53bd 5001 553d 1ca5 d53c
00000320: 685e e0bc c0b5 0dbb ac6e 883c e804 e3bc
00000330: 105f 41bd 0ca4 353d a267 7a3d 60fc 553d
00000340: 501d abbb e264 37bd dc54 70bd 7427 91bc
00000350: dc01 f9bc e4ee 56bd c8e2 33bd 00a1 25bb
00000360: 5c5e 0b3d b085 b43b b81e 78bd f895 0b3c
00000370: 3c0c a9bc 2829 aabc d035 2fbd 26ce 1d3d
00000380: 8cb2 1fbd 34da a4bc 6c56 aa3c 1a82 3fbd
00000390: 5002 c2bb 10ce 5f3d 289a ad3c fca0 523d
000003a0: 4c1f 4abd 2ca2 4a3d b8d4 323c 7083 d63b
000003b0: f03a 403c 7c5c cebc 80ae 05bb 5047 5f3c
000003c0: d06d 153d 3c37 9d3c a084 05bb 0027 16bb
000003d0: ec57 293d f0dc ff3b 8c01 f43c b2f9 75bd
000003e0: 00c5 8cbc 10c9 f8bc 94b5 be3c 688c 633d
000003f0: bc48 b73c 3804 23bd 301f be3b f88b 0cbd
-0.044902757 0.020810463 0.019622251 0.03621167 0.038749553 -0.04132013 -0.042939857 -0.020907626
0.032367468 0.029914618 0.03482067 0.059312858 -0.053444467 0.057670504 -0.027644686 -0.022616558
0.025419734 -0.005911261 0.018135436 -0.052289367 0.010278739 -0.0075280666 0.03966245 0.0098067
-0.036678575 -0.0085512325 -0.021176673 0.041453823 -0.058655404 -0.051853552 -0.04529748 -0.056071192
-0.05308099 -0.01997254 0.013163246 -0.037757732 -0.027517498 -0.017556913 -0.0075027794 -0.027833708
-0.059309512 -0.04247027 0.0011603832 0.0402138 0.051480234 0.017577358 -0.0621771 0.013967507
-0.04615549 0.01608938 0.05293951 0.04665596 0.04887493 0.0016413778 -0.029908106 0.052249447
0.059863895 0.033708476 -0.0036453605 0.0252164 -0.051323168 -0.036719956 -0.013470508 0.0026515126
-0.052237704 0.03659743 0.037036173 -0.04412613 -0.04392381 0.06004007 0.0030628443 0.03088089
-0.046135493 -0.01286643 -0.015893072 -0.056758113 0.055191204 -0.04856644 0.047647953 0.021962084
0.023834504 -0.046406336 0.05223223 0.05152967 -0.027716443 0.0016735494 0.008419171 -0.033181608
0.03429491 0.04192462 -0.036694847 -0.030336559 0.012310833 -0.01336851 -0.04355666 -0.013362832
-0.020426653 0.03365492 -0.005688742 0.040590957 -0.0539127 0.04115949 0.037950456 0.0047508627
0.056618392 -0.0054318532 0.054167233 -0.03995157 0.013045661 0.032170214 0.00018911809 -0.016077258
-0.03802287 0.008372791 -0.039452903 0.033940107 0.036140427 -0.04832357 0.033831127 -0.027441196
0.052838005 -0.03501919 0.039807618 0.057331167 0.047960624 0.05782768 -0.031799823 0.012411341
0.044560194 -0.051999815 0.05675835 -0.04108955 0.009554863 0.047157712 0.025874503 0.04262214
-0.024894096 0.056367718 0.03608775 0.04505557 0.024419464 0.01995629 0.00918588 -0.059596255
-0.030114502 -0.020658031 0.020937525 -0.039632373 -0.039195992 -0.056049548 -0.0035600066 -0.008625142
0.042838983 0.046591252 0.011517264 0.012831137 0.052675366 0.053727075 0.040495202 -0.05068727
0.045595795 -0.025088415 0.0497023 0.014948592 -0.042263657 -0.035479143 -0.0013648942 -0.028864577
-0.06237512 -0.02600272 -0.006764613 -0.037502177 0.014291115 0.018286616 0.03487645 0.030985557
0.046560936 0.004391961 -0.011680394 -0.023726456 -0.058363684 -0.019754454 0.030830063 -0.058378488
-0.044760883 -0.0025488809 0.0121315345 0.03217558 -0.037530705 -0.030391656 0.050630145 0.006342672
-0.0070985034 0.0014741123 0.055320956 0.0043167323 -0.009123735 -0.05167567 0.052003205 0.026079707
-0.027388766 -0.0021623224 0.016654335 -0.0277123 -0.0472098 0.0443459 0.06113399 0.052242637
-0.005222 -0.044773944 -0.05867468 -0.017719008 -0.030396394 -0.052473918 -0.043917447 -0.0025272965
0.034025535 0.005509101 -0.06057617 0.008519642 -0.020635717 -0.020771578 -0.04277593 0.038526677
-0.038988635 -0.020123579 0.020793162 -0.046754934 -0.005920686 0.054639876 0.021191671 0.051423058
-0.049346253 0.049471065 0.010914974 0.0065464303 0.011732802 -0.025190584 -0.00203982 0.013627842
0.03648168 0.019191377 -0.002037324 -0.002291143 0.041343614 0.00780832 0.029785894 -0.06005258
-0.01718378 -0.030369312 0.023279943 0.055553824 0.02237355 -0.039798945 0.0058020577 -0.034313172

fc2.bias f4 [128]
00000000: 009e c73b 2c76 1abd 901d 743c f4c6 06bd
00000010: 0651 62bd 8ce1 00bd 7a2b 2d3d 8c3e 23bd
00000020: c0b5 a0ba a2d6 3ebd fc8d bfbc 0afc 24bd
00000030: 287d 903c 6a08 13bd 3016 023c 9cfc 283d
00000040: 10d3 66bd 3841 8d3c fe04 6cbd 64c8 c73c
00000050: 605a a83c 7c17 64bd e0db b63b 18d5 ce3c
00000060: a8a1 5e3d dc48 57bd e4d9 5bbd a0b7 36bc
00000070: f0d1 ae3c a030 653d bc74 0abd 6017 c83b
00000080: 388d 093d 009c 253a f299 25bd 4829 8dbc
00000090: f0ed 423c 8e66 683d 8a9a 523d 66ec 6bbd
000000a0: 48a5 1ebd 4022 57bc 6845 7ebc 5865 fdbc
000000b0: de53 16bd 98c7 fb3c a6d0 0c3d d0d7 093d
000000c0: be20 78bd 7419 303d e88f b1bc eeaa 59bd
000000d0: e02e c3bb 80f9 4ebd 4043 45bc 00fc 6abc
000000e0: 3eeb 62bd 0c0c e2bc 00b4 57ba f4c2 30bd
000000f0: e060 55bd e8a1 19bc 9c43 e53c a0b9 76bb
00000100: 5e30 76bd 0860 15bd 5014 5bbd 7014 24bd
00000110: 98f2 f1bc ea14 3c3d 1ca4 4cbd 08db 453d
00000120: 86fc 04bd 8ef9 283d 407e ad3a 082e d1bc
00000130: ce20 723d c602 14bd 5091 f6bb f83b 6b3c
00000140: a6d5 6f3d d613 183d 2871 713d e89b abbc
00000150: 3cdb 8fbc 7485 30bd 96e5 1abd c615 3f3d
00000160: bedd 103d 38fe d3bc c4b1 26bd a044 b7bb
00000170: 206c 6c3d 6e29 3f3d 9651 273d 70b3 e8bc
00000180: 6001 ffbb b486 f0bc c626 6b3d 04d3 8e3c
00000190: 7479 a5bc a8cf 0ebc 7019 6b3c e4d6 f9bc
000001a0: 10a0 043d e09c b03c 5833 813c 20e4 b43c
000001b0: 32e7 373d d0a3 a8bc 9463 6d3d f061 5ebd
000001c0: 980a d2bc 7ca2 bf3c 40f0 033c 1ea5 4dbd
000001d0: ae95 113d d0e2 b93c 105a 863b d877 a33c
000001e0: 080f 483c 1a12 39bd 1873 633c 80f6 343d
000001f0: 8044 8abb 54bc e73c 6080 6fbd 302b 1dbc
0.006091833 -0.037710354 0.014899626 -0.03290458 -0.05525305 -0.0314651 0.04227779 -0.03985457
-0.0012261197 -0.04659141 -0.023383133 -0.040279426 0.017637804 -0.035896696 0.00793986 0.041256532
-0.05635363 0.017243013 -0.05762195 0.024387546 0.020550907 -0.05568646 0.0055804104 0.025248095
0.054353386 -0.05255972 -0.053674594 -0.011152178 0.02134034 0.055954576 -0.033802733 0.006106302
0.033581942 0.00063174963 -0.040430017 -0.017231598 0.011897549 0.05673843 0.05141691 -0.057598494
-0.038731843 -0.013130724 -0.015519477 -0.030932114 -0.036701076 0.030734822 0.03437867 0.03365308
-0.0605781 0.042993024 -0.021675065 -0.053141527 -0.0059565157 -0.05053091 -0.012039959 -0.014342308
-0.055400126 -0.027593635 -0.0008228421 -0.04315467 -0.05209434 -0.00937698 0.02798634 -0.0037647262
-0.06010472 -0.036468536 -0.05348617 -0.040058553 -0.029534623 0.045918383 -0.049961194 0.048304588
-0.032467388 0.04125362 0.0013236478 -0.025534645 0.059113316 -0.036135457 -0.007524647 0.014357559
0.05855336 0.037128292 0.058945805 -0.020948365 -0.017560594 -0.04309602 -0.037816606 0.046651624
0.03536772 -0.025878057 -0.040696874 -0.0055928975 0.057720304 0.04667037 0.04084929 -0.028405875
-0.0077821463 -0.029361106 0.057410024 0.017434604 -0.020199515 -0.008716501 0.0143493265 -0.030497976
0.03237921 0.021559179 0.015771553 0.022081435 0.04489822 -0.020585924 0.057956293 -0.05429262
-0.025639817 0.023392908 0.0080528855 -0.050206296 0.035543136 0.02269116 0.0041000918 0.019954607
0.012210615 -0.04518328 0.013882421 0.044180393 -0.0042195916 0.028288044 -0.058472037 -0.009592816

fc3.weight f4 [10, 128]
00000000: 5cbf 8ebd 2f9b 533d 1238 a2bd abee 143b
00000010: 658c b7bb cfa5 863d c545 7bbc 4647 e13c
00000020: bcf9 233d c221 e03c 1f09 213c d8fd 003d
00000030: c147 7e3d 8b4c f03c 7fa5 223c 1d87 3dbd
00000040: 8e45 a4bd 139d 623d 5e68 653d 9ffd 613d
00000050: 9739 9f3c 5a8f cdbc 94f5 1bbd f852 f1bc
00000060: b2b3 cebc f22d 273d 4b6a 4d3c 4e13 47bd
00000070: 5761 a8bc beb3 063c 1b95 753d 415d 323d
00000080: 431c a33d e89c 7b3d 4445 febc a56f 073d
00000090: 778a 47bd 4949 b3bc 2e9a 85bc df94 00bd
000000a0: 343a 353c b59d 8bbd 8ff0 093d d5a1 1dbd
000000b0: 1daf 4fbd 1665 bbbc fa77 ab3d 3d43 463c
000000c0: 51f0 c4bc 5bae 82bd aa5d 8d3d 67e3 a73d
000000d0: b44b 35bd a94a 89bd 4e89 62bd 0147 923d
000000e0: e1c9 35bd 7a15 033c 11a7 953d 6703 63bd
000000f0: 329a 673b 1f2e 49bc 22eb bebc 6d2b 06bd
00000100: fa4d ecbc 8d28 efbc 49e8 203c 8ba7 c1bc
00000110: 95b5 f63c af86 3d3d cde4 a6bd 74e2 aa3d
00000120: 166e c2bc 1d12 a3bd c07b 213d 797c a33d
00000130: 63e4 69bc c3d8 aabc d168 a43d aaef 1cbd
00000140: cc06 50bd 0f77 a43c cb19 c93b eee2 1f3d
00000150: 947e 81bb e62e b3bc 0010 983d 205e d43c
00000160: f156 503d d809 1e3d b8bd 493d d2c8 a5bd
00000170: f17e 34bd 94e3 7abd b41f 9c3d 96af 86bc
00000180: 5742 b43d e4a8 efbc 3909 85bc d9db d6bc
00000190: f2bc 9a3d 2c19 a8bd 9120 92bd 8976 293d
000001a0: 1654 a6bd a10f cd3c 5c1b acbc 70c1 0b3d
000001b0: e191 4f3d f1a2 9bbd 1669 aebd af07 25bb
000001c0: 689c 7cbd 93bc b3bd d9be abbd 4eb8 9cbd
000001d0: d60b 653d d866 b0bb 7b87 bd3c 5012 773d
000001e0: f28f 2e3d b80f 09bd 01c6 823d f5b3 5d3d
000001f0: d4f4 b4bd 488c 853d 9740 a5bd f54b 83bd
00000200: 557f b3bb a825 7c3d 275d bfbb b1ae 45bd
00000210: 7b3b be3c c607 acbd a8d9 00bd 72e0 5ebc
00000220: af05 efbc ae3b b63c bdf0 373d 2334 903d
00000230: 7a9a f9bc 452b 673c 9af4 2d3d 697f 553d
00000240: e291 b0bd d76a 4e3d a3d9 6f3d 5d33 8a3d
00000250: 7615 12bd 5c26 59bd 82d8 1ebd 66df d73b
00000260: 2ffd a7bd d339 363c 3815 343d 3a60 5e3d
00000270: fa61 8c3d 67cf 8f3c cbc3 a73d 3191 85bd
00000280: 5c8a 073d fb54 a1bc d0e8 db3c d4d2 dbbb
00000290: c08f 803d 4281 153c f259 333c 6f1d 5fbc
000002a0: ea9b 87bd 2ede a53c 7809 96bd 0362 4a3d
000002b0: b18c 24bd bbd0 743c 3c60 173c db6e 9c3d
000002c0: 5973 f43c 7ab6 a4bc 1cd9 b3bd 138d 81bb
000002d0: 2e2b 3d3c dcbf a63d 70b9 09bd f1c3 aa3d
000002e0: 7e10 55bd 33b1 d6bb be15 b53c b125 9c3d
000002f0: 096a ab3d bdae cf3b c4ee de3c 6403 4a3d
00000300: 0093 b7bc 2672 8cbc fda5 dc3c 4b2c ae3d
00000310: 9368 1eba ba1e d43c e5a4 0ebd 7c3a 903d
00000320: 63f9 9f3d b0ec 0c3d 0b23 68bd 1f0a 633d
00000330: 7edc 85bd a896 5f3c ba09 0ebd 4b05 70bd
00000340: ec52 d43c 5af2 37bc 784d f5bc 064d 973d
00000350: 861a 903d c3f1 9c3c b3bb 5e3d 9e84 d4bc
00000360: 0f2b 433c 2594 a23d f06b 83bd c57a 1e3d
00000370: c136 ec3c 8aef 3a3d 27aa a03d 89f7 9ebd
00000380: 9d7e 79bd 15cf a23b 3cab c9bc 45d2 12bd
00000390: 99c7 a13c cbab 223d f030 2cbd 1cab 7c3d
000003a0: f30d 62bd 9ee2 b3bc 66c7 d8bc f088 113d
000003b0: 30e9 5b3d a2d9 8d3d 64b2 8cbd 2eb1 ef3c
000003c0: 98a9 a4bd 47a7 263d 2197 e2bc 20ca 65bd
000003d0: 7dff 90bd 0300 72bc ff9b 1bbd dbaa 8b3c
000003e0: 6533 123d 9b4d 4a3c 0908 67bd 6e3a 77bd
000003f0: 7744 96bc 0568 943d 6aba 06bd e2d2 11bd
-0.06970093 0.051661666 -0.07920851 0.0022725265 -0.005601453 0.06574594 -0.015336459 0.027499806
0.040033087 0.027359847 0.009828835 0.031492084 0.06208015 0.029333374 0.009927153 -0.046271432
-0.08021079 0.05532558 0.056007735 0.055173513 0.01943664 -0.02509277 -0.038076 -0.029458508
-0.02523217 0.0408153 0.012537549 -0.048602395 -0.020554228 0.008221565 0.05995665 0.043545965
0.07964375 0.061428934 -0.031038888 0.033065457 -0.048716035 -0.021885531 -0.01630887 -0.031391975
0.01106124 -0.068171896 0.03367668 -0.038484413 -0.05070411 -0.02287535 0.08372493 0.012100992
-0.024040373 -0.06380912 0.069026306 0.081976704 -0.04426165 -0.067036934 -0.055306725 0.07142449
-0.04438198 0.008000726 0.07307256 -0.055423167 0.003533971 -0.0122790625 -0.02330548 -0.032756258
-0.028845776 -0.02919414 0.009821006 -0.023639461 0.030115882 0.046271022 -0.08149109 0.08343974
-0.023734134 -0.07962439 0.039424658 0.07982726 -0.014275643 -0.020855313 0.08027805 -0.0383145
-0.050787732 0.020076303 0.006137108 0.039034776 -0.003951857 -0.021872949 0.07424927 0.025923789
0.050864164 0.038583606 0.049253196 -0.08094944 -0.044066373 -0.06125219 0.076232344 -0.016441148
0.08801716 -0.029255338 -0.01623975 -0.026227878 0.0755557 -0.08207926 -0.07135118 0.04137281
-0.08121507 0.025031867 -0.02100914 0.034120023 0.05067623 -0.07599438 -0.08516137 -0.0025181582
-0.061672598 -0.08776202 -0.08386011 -0.07652341 0.05591949 -0.0053833537 0.023135891 0.0603202
0.042617746 -0.033462256 0.063854225 0.0541267 -0.0883576 0.06520897 -0.0806896 -0.06410972
-0.0054778256 0.06155935 -0.005839962 -0.0482623 0.023221722 -0.0839992 -0.031457573 -0.013603317
-0.029177515 0.022245254 0.04490732 0.07041194 -0.030469168 0.014109437 0.0424696 0.05212346
-0.08621575 0.05039486 0.058557164 0.06748078 -0.035664998 -0.053015098 -0.038780697 0.0065879105
-0.08202588 0.011122185 0.04396555 0.054290988 0.06854625 0.017554952 0.081916414 -0.06521834
0.033090934 -0.019693842 0.026844412 -0.0067084823 0.06277418 0.009125056 0.010946738 -0.013617857
-0.06621535 0.020247545 -0.07326025 0.049409878 -0.040173236 0.014942343 0.009239253 0.076383315
0.029840158 -0.020106543 -0.08781645 -0.003953585 0.011545939 0.08142063 -0.033624113 0.08338154
-0.05201768 -0.0065518855 0.022105094 0.076243766 0.08369834 0.006337969 0.027213462 0.04931964
-0.022408962 -0.017144274 0.026934618 0.08504542 -0.00060428045 0.025893558 -0.034825224 0.07042405
0.078112386 0.03440541 -0.056674045 0.055429574 -0.06536196 0.013646759 -0.034677245 -0.058598798
0.025918446 -0.011227215 -0.029944167 0.07387738 0.07036309 0.01915825 0.054378223 -0.025942143
0.011912121 0.079384126 -0.06417072 0.0386913 0.028834702 0.0456386 0.07844954 -0.07762057
-0.060911763 0.0049685338 -0.024617784 -0.03584506 0.019748496 0.039714616 -0.042038858 0.06168662
-0.055189084 -0.021958645 -0.026462268 0.035530984 0.05368918 0.06926276 -0.06869963 0.02925929
-0.0804016 0.04068687 -0.027659955 -0.056100965 -0.070799805 -0.014770511 -0.037990566 0.017049244
0.035693545 0.012347604 -0.056404147 -0.060358457 -0.018343193 0.07246403 -0.032892622 -0.035601504

fc3.bias f4 [10]
00000000: c252 8ebc 09dc d8bc 7a0d 40bd 50ce 413d
00000010: a8f5 d2bc 27e6 c83c 31ff d4bc dcf6 a9bd
00000020: 21fd a3bd a55b e6bc
-0.017373446 -0.026472108 -0.046887852 0.047315896 -0.025751904 0.024523808 -0.026000591 -0.08299038
-0.08007265 -0.028119871
